{"class_name": "Model", "config": {"name": "model_20", "layers": [{"name": "input_39", "class_name": "InputLayer", "config": {"batch_input_shape": [null, 300, null, 1], "dtype": "float32", "sparse": false, "name": "input_39"}, "inbound_nodes": []}, {"name": "input_40", "class_name": "InputLayer", "config": {"batch_input_shape": [null, 12, null, 1], "dtype": "float32", "sparse": false, "name": "input_40"}, "inbound_nodes": []}, {"name": "conv2d_39", "class_name": "Conv2D", "config": {"name": "conv2d_39", "trainable": true, "filters": 32, "kernel_size": [300, 1], "strides": [1, 1], "padding": "valid", "data_format": "channels_last", "dilation_rate": [1, 1], "activation": "relu", "use_bias": true, "kernel_initializer": {"class_name": "VarianceScaling", "config": {"scale": 1.0, "mode": "fan_avg", "distribution": "uniform", "seed": null}}, "bias_initializer": {"class_name": "Zeros", "config": {}}, "kernel_regularizer": null, "bias_regularizer": null, "activity_regularizer": null, "kernel_constraint": null, "bias_constraint": null}, "inbound_nodes": [[["input_39", 0, 0, {}]]]}, {"name": "conv2d_40", "class_name": "Conv2D", "config": {"name": "conv2d_40", "trainable": true, "filters": 32, "kernel_size": [12, 1], "strides": [1, 1], "padding": "valid", "data_format": "channels_last", "dilation_rate": [1, 1], "activation": "relu", "use_bias": true, "kernel_initializer": {"class_name": "VarianceScaling", "config": {"scale": 1.0, "mode": "fan_avg", "distribution": "uniform", "seed": null}}, "bias_initializer": {"class_name": "Zeros", "config": {}}, "kernel_regularizer": null, "bias_regularizer": null, "activity_regularizer": null, "kernel_constraint": null, "bias_constraint": null}, "inbound_nodes": [[["input_40", 0, 0, {}]]]}, {"name": "global_max_pooling2d_39", "class_name": "GlobalMaxPooling2D", "config": {"name": "global_max_pooling2d_39", "trainable": true, "data_format": "channels_last"}, "inbound_nodes": [[["conv2d_39", 0, 0, {}]]]}, {"name": "global_max_pooling2d_40", "class_name": "GlobalMaxPooling2D", "config": {"name": "global_max_pooling2d_40", "trainable": true, "data_format": "channels_last"}, "inbound_nodes": [[["conv2d_40", 0, 0, {}]]]}, {"name": "concatenate_20", "class_name": "Concatenate", "config": {"name": "concatenate_20", "trainable": true, "axis": -1}, "inbound_nodes": [[["global_max_pooling2d_39", 0, 0, {}], ["global_max_pooling2d_40", 0, 0, {}]]]}, {"name": "dense_39", "class_name": "Dense", "config": {"name": "dense_39", "trainable": true, "units": 200, "activation": "relu", "use_bias": true, "kernel_initializer": {"class_name": "VarianceScaling", "config": {"scale": 1.0, "mode": "fan_avg", "distribution": "uniform", "seed": null}}, "bias_initializer": {"class_name": "Zeros", "config": {}}, "kernel_regularizer": null, "bias_regularizer": null, "activity_regularizer": null, "kernel_constraint": null, "bias_constraint": null}, "inbound_nodes": [[["concatenate_20", 0, 0, {}]]]}, {"name": "dropout_20", "class_name": "Dropout", "config": {"name": "dropout_20", "trainable": true, "rate": 0.2, "noise_shape": null, "seed": null}, "inbound_nodes": [[["dense_39", 0, 0, {}]]]}, {"name": "dense_40", "class_name": "Dense", "config": {"name": "dense_40", "trainable": true, "units": 1, "activation": "sigmoid", "use_bias": true, "kernel_initializer": {"class_name": "VarianceScaling", "config": {"scale": 1.0, "mode": "fan_avg", "distribution": "uniform", "seed": null}}, "bias_initializer": {"class_name": "Zeros", "config": {}}, "kernel_regularizer": {"class_name": "L1L2", "config": {"l1": 0.0, "l2": 0.0010000000474974513}}, "bias_regularizer": null, "activity_regularizer": null, "kernel_constraint": null, "bias_constraint": null}, "inbound_nodes": [[["dropout_20", 0, 0, {}]]]}], "input_layers": [["input_39", 0, 0], ["input_40", 0, 0]], "output_layers": [["dense_40", 0, 0]]}, "keras_version": "2.2.4", "backend": "tensorflow"}