{"class_name": "Model", "config": {"name": "model_3", "layers": [{"name": "input_5", "class_name": "InputLayer", "config": {"batch_input_shape": [null, 300, null, 1], "dtype": "float32", "sparse": false, "name": "input_5"}, "inbound_nodes": []}, {"name": "input_6", "class_name": "InputLayer", "config": {"batch_input_shape": [null, 12, null, 1], "dtype": "float32", "sparse": false, "name": "input_6"}, "inbound_nodes": []}, {"name": "conv2d_13", "class_name": "Conv2D", "config": {"name": "conv2d_13", "trainable": true, "filters": 256, "kernel_size": [300, 1], "strides": [1, 1], "padding": "valid", "data_format": "channels_last", "dilation_rate": [1, 1], "activation": "linear", "use_bias": true, "kernel_initializer": {"class_name": "VarianceScaling", "config": {"scale": 1.0, "mode": "fan_avg", "distribution": "uniform", "seed": null}}, "bias_initializer": {"class_name": "Zeros", "config": {}}, "kernel_regularizer": null, "bias_regularizer": null, "activity_regularizer": null, "kernel_constraint": null, "bias_constraint": null}, "inbound_nodes": [[["input_5", 0, 0, {}]]]}, {"name": "conv2d_16", "class_name": "Conv2D", "config": {"name": "conv2d_16", "trainable": true, "filters": 256, "kernel_size": [12, 1], "strides": [1, 1], "padding": "valid", "data_format": "channels_last", "dilation_rate": [1, 1], "activation": "linear", "use_bias": true, "kernel_initializer": {"class_name": "VarianceScaling", "config": {"scale": 1.0, "mode": "fan_avg", "distribution": "uniform", "seed": null}}, "bias_initializer": {"class_name": "Zeros", "config": {}}, "kernel_regularizer": null, "bias_regularizer": null, "activity_regularizer": null, "kernel_constraint": null, "bias_constraint": null}, "inbound_nodes": [[["input_6", 0, 0, {}]]]}, {"name": "leaky_re_lu_13", "class_name": "LeakyReLU", "config": {"name": "leaky_re_lu_13", "trainable": true, "alpha": 0.30000001192092896}, "inbound_nodes": [[["conv2d_13", 0, 0, {}]]]}, {"name": "leaky_re_lu_16", "class_name": "LeakyReLU", "config": {"name": "leaky_re_lu_16", "trainable": true, "alpha": 0.30000001192092896}, "inbound_nodes": [[["conv2d_16", 0, 0, {}]]]}, {"name": "conv2d_14", "class_name": "Conv2D", "config": {"name": "conv2d_14", "trainable": true, "filters": 128, "kernel_size": [5, 5], "strides": [1, 1], "padding": "same", "data_format": "channels_last", "dilation_rate": [1, 1], "activation": "linear", "use_bias": true, "kernel_initializer": {"class_name": "VarianceScaling", "config": {"scale": 1.0, "mode": "fan_avg", "distribution": "uniform", "seed": null}}, "bias_initializer": {"class_name": "RandomNormal", "config": {"mean": 0.0, "stddev": 0.05, "seed": null}}, "kernel_regularizer": null, "bias_regularizer": null, "activity_regularizer": null, "kernel_constraint": null, "bias_constraint": null}, "inbound_nodes": [[["leaky_re_lu_13", 0, 0, {}]]]}, {"name": "conv2d_17", "class_name": "Conv2D", "config": {"name": "conv2d_17", "trainable": true, "filters": 128, "kernel_size": [5, 5], "strides": [1, 1], "padding": "same", "data_format": "channels_last", "dilation_rate": [1, 1], "activation": "linear", "use_bias": true, "kernel_initializer": {"class_name": "VarianceScaling", "config": {"scale": 1.0, "mode": "fan_avg", "distribution": "uniform", "seed": null}}, "bias_initializer": {"class_name": "RandomNormal", "config": {"mean": 0.0, "stddev": 0.05, "seed": null}}, "kernel_regularizer": null, "bias_regularizer": null, "activity_regularizer": null, "kernel_constraint": null, "bias_constraint": null}, "inbound_nodes": [[["leaky_re_lu_16", 0, 0, {}]]]}, {"name": "leaky_re_lu_14", "class_name": "LeakyReLU", "config": {"name": "leaky_re_lu_14", "trainable": true, "alpha": 0.30000001192092896}, "inbound_nodes": [[["conv2d_14", 0, 0, {}]]]}, {"name": "leaky_re_lu_17", "class_name": "LeakyReLU", "config": {"name": "leaky_re_lu_17", "trainable": true, "alpha": 0.30000001192092896}, "inbound_nodes": [[["conv2d_17", 0, 0, {}]]]}, {"name": "conv2d_15", "class_name": "Conv2D", "config": {"name": "conv2d_15", "trainable": true, "filters": 64, "kernel_size": [5, 5], "strides": [1, 1], "padding": "same", "data_format": "channels_last", "dilation_rate": [1, 1], "activation": "linear", "use_bias": true, "kernel_initializer": {"class_name": "VarianceScaling", "config": {"scale": 1.0, "mode": "fan_avg", "distribution": "uniform", "seed": null}}, "bias_initializer": {"class_name": "RandomNormal", "config": {"mean": 0.0, "stddev": 0.05, "seed": null}}, "kernel_regularizer": null, "bias_regularizer": null, "activity_regularizer": null, "kernel_constraint": null, "bias_constraint": null}, "inbound_nodes": [[["leaky_re_lu_14", 0, 0, {}]]]}, {"name": "conv2d_18", "class_name": "Conv2D", "config": {"name": "conv2d_18", "trainable": true, "filters": 64, "kernel_size": [5, 5], "strides": [1, 1], "padding": "same", "data_format": "channels_last", "dilation_rate": [1, 1], "activation": "linear", "use_bias": true, "kernel_initializer": {"class_name": "VarianceScaling", "config": {"scale": 1.0, "mode": "fan_avg", "distribution": "uniform", "seed": null}}, "bias_initializer": {"class_name": "RandomNormal", "config": {"mean": 0.0, "stddev": 0.05, "seed": null}}, "kernel_regularizer": null, "bias_regularizer": null, "activity_regularizer": null, "kernel_constraint": null, "bias_constraint": null}, "inbound_nodes": [[["leaky_re_lu_17", 0, 0, {}]]]}, {"name": "leaky_re_lu_15", "class_name": "LeakyReLU", "config": {"name": "leaky_re_lu_15", "trainable": true, "alpha": 0.30000001192092896}, "inbound_nodes": [[["conv2d_15", 0, 0, {}]]]}, {"name": "leaky_re_lu_18", "class_name": "LeakyReLU", "config": {"name": "leaky_re_lu_18", "trainable": true, "alpha": 0.30000001192092896}, "inbound_nodes": [[["conv2d_18", 0, 0, {}]]]}, {"name": "global_max_pooling2d_5", "class_name": "GlobalMaxPooling2D", "config": {"name": "global_max_pooling2d_5", "trainable": true, "data_format": "channels_last"}, "inbound_nodes": [[["leaky_re_lu_15", 0, 0, {}]]]}, {"name": "global_max_pooling2d_6", "class_name": "GlobalMaxPooling2D", "config": {"name": "global_max_pooling2d_6", "trainable": true, "data_format": "channels_last"}, "inbound_nodes": [[["leaky_re_lu_18", 0, 0, {}]]]}, {"name": "concatenate_3", "class_name": "Concatenate", "config": {"name": "concatenate_3", "trainable": true, "axis": -1}, "inbound_nodes": [[["global_max_pooling2d_5", 0, 0, {}], ["global_max_pooling2d_6", 0, 0, {}]]]}, {"name": "dense_5", "class_name": "Dense", "config": {"name": "dense_5", "trainable": true, "units": 500, "activation": "relu", "use_bias": true, "kernel_initializer": {"class_name": "VarianceScaling", "config": {"scale": 1.0, "mode": "fan_avg", "distribution": "uniform", "seed": null}}, "bias_initializer": {"class_name": "Zeros", "config": {}}, "kernel_regularizer": null, "bias_regularizer": null, "activity_regularizer": null, "kernel_constraint": null, "bias_constraint": null}, "inbound_nodes": [[["concatenate_3", 0, 0, {}]]]}, {"name": "dropout_3", "class_name": "Dropout", "config": {"name": "dropout_3", "trainable": true, "rate": 0.0, "noise_shape": null, "seed": null}, "inbound_nodes": [[["dense_5", 0, 0, {}]]]}, {"name": "dense_6", "class_name": "Dense", "config": {"name": "dense_6", "trainable": true, "units": 1, "activation": "sigmoid", "use_bias": true, "kernel_initializer": {"class_name": "VarianceScaling", "config": {"scale": 1.0, "mode": "fan_avg", "distribution": "uniform", "seed": null}}, "bias_initializer": {"class_name": "Zeros", "config": {}}, "kernel_regularizer": {"class_name": "L1L2", "config": {"l1": 0.0, "l2": 9.999999747378752e-05}}, "bias_regularizer": null, "activity_regularizer": null, "kernel_constraint": null, "bias_constraint": null}, "inbound_nodes": [[["dropout_3", 0, 0, {}]]]}], "input_layers": [["input_5", 0, 0], ["input_6", 0, 0]], "output_layers": [["dense_6", 0, 0]]}, "keras_version": "2.2.4", "backend": "tensorflow"}